HW2/DeepConvNet.pth (torch_old, 765129 bytes, 32 tensors)

conv1.0.weight f4 [25, 1, 1, 5]
0.24059644 -0.18576619 0.35532174 0.123351164 -0.27637568 -0.40037385 0.254496 -0.32681057
0.24909462 0.4259207 0.3392453 -0.109890275 0.14577317 0.21353501 0.16896589 -0.2249863
-0.16414066 -0.16210738 0.3293625 -0.483191 -0.105228715 0.4159122 -0.26768288 -0.29364046
0.3090021 -0.39302903 -0.18251513 0.42107207 -0.38220617 0.30768338 -0.18131739 0.18122828
0.29964188 0.048472747 0.4577018 -0.23908563 -0.111794144 -0.21710859 0.09687323 0.48666003
0.10304972 -0.31130219 0.0062510655 -0.101855166 0.1389596 0.37499124 -0.4159556 0.015366164
-0.16096722 0.27067086 -0.4070973 -0.042359725 0.43516535 -0.36715367 0.19421156 0.2470659
-0.17236099 0.16079205 0.20686916 -0.29010734 -0.24023798 0.06982587 0.18061231 0.22243778
-0.26679033 0.024966218 -0.38202682 0.119183265 0.4389677 0.20461465 0.22735623 -0.05420036
0.35077962 -0.2622165 0.1957345 -0.44282588 -0.20523494 0.24322225 0.118340194 -0.122687735
-0.24607797 0.2917837 0.035362165 -0.015772179 -0.4198984 -0.03524885 -0.048524864 -0.41726762
0.2640119 0.1338284 -0.21286245 0.4467688 0.31730658 0.041988328 0.14166795 0.35076576
0.08493079 -0.44861135 -0.2866061 -0.13702628 0.26787233 0.09869287 0.4128391 0.12765047
-0.19999821 0.42013627 0.0377715 -0.13411592 -0.110772826 -0.08245255 -0.33990324 -0.169474
0.3670625 -0.2458471 -0.10444963 0.17246145 0.39481446 -0.016900636 0.2956537 0.18142526
-0.17073025 -0.24744175 0.13867424 0.18074922 0.13708434
00000000: ea5e 763e 7e39 3ebe bbec b53e 899f fc3d
00000010: 1d81 8dbe cdfd ccbe 4d4d 823e b753 a7be
00000020: a912 7f3e 4712 da3e 8fb1 ad3e 270e e1bd
00000030: 9045 153e eca8 5a3e 6505 2d3e cf62 66be
00000040: 7d14 28be 7aff 25be 34a2 a83e d064 f7be
00000050: 2782 d7bd 72f2 d43e bb0d 89be 0b58 96be
00000060: 8635 9e3e 1a3b c9be 3fe5 3abe c296 d73e
00000070: 87b0 c3be ad88 9d3e 44ab 39be e893 393e
00000080: a96a 993e 5c8b 463d e457 ea3e ddd2 74be
00000090: 54f4 e4bd b751 5ebe 7965 c63d 812b f93e
000000a0: bb0b d33d 0063 9fbe bdd5 cc3b 7199 d0bd
000000b0: 6d4b 0e3e dafe bf3e 22f8 d4be 5dc2 7b3c
000000c0: 97d4 24be 5f95 8a3e 0f6f d0be 6481 2dbd
000000d0: fecd de3e 91fb bbbe 65df 463e d8fe 7c3e
000000e0: 667f 30be aca6 243e 82d5 533e f388 94be
000000f0: f200 76be de00 8f3d 6ff2 383e bbc6 633e
00000100: be98 88be f485 cc3c 0599 c3be 5b16 f43d
00000110: 60c0 e03e 8186 513e 12d0 683e 3201 5ebd
00000120: 6399 b33e 3e41 86be a06e 483e 13ba e2be
00000130: 1c29 52be 410f 793e 585c f23d b543 fbbd
00000140: ddfb 7bbe ac64 953e ebd7 103d a834 81bc
00000150: ecfc d6be 1961 10bd 02c2 46bd 1aa4 d5be
00000160: 912c 873e 500a 093e 9df8 59be e1be e43e
00000170: 0276 a23e f4fb 2b3d 6711 113e 9297 b33e
00000180: 32f0 ad3d 63b0 e5be 09be 92be 9e50 0cbe
00000190: 9026 893e 7d1f ca3d a65f d33e ceb6 023e
000001a0: 55cc 4cbe 1a1c d73e 4ab6 1a3d af55 09be
000001b0: dddc e2bd e2dc a8bd cc07 aebe 988a 2dbe
000001c0: 9eef bb3e 58bf 7bbe b0e9 d5bd bc99 303e
000001d0: 1f25 ca3e 3473 8abc ec5f 973e 8bc7 393e
000001e0: e9d3 2ebe 5f61 7dbe 9f00 0e3e 5316 393e
000001f0: d65f 0c3e

conv1.0.bias f4 [25]
-0.29580235 -0.15568806 -0.37953064 0.15882559 -0.39968622 -0.018617753 -0.03315704 -0.24067673
-0.37706235 -0.15756795 -0.29810873 0.04562426 0.39869985 -0.28010526 -0.26137874 0.28376934
0.21007708 0.045651283 -0.38982168 -0.14400406 -0.12574324 0.3723712 0.44503507 0.11023565
-0.28273547
00000000: 6873 97be b16c 1fbe d751 c2be 2da3 223e
00000010: aca3 ccbe 4284 98bc adcf 07bd f673 76be
00000020: 510e c1be 7e59 21be b5a1 98be 81e0 3a3d
00000030: 6322 cc3e f569 8fbe 6fd3 85be 374a 913e
00000040: 721e 573e d7fc 3a3d b596 c7be cd75 13be
00000050: d6c2 00be 70a7 be3e a3db e33e 3ac3 e13d
00000060: b4c2 90be

conv1.1.weight f4 [25]
0.39342082 0.31044388 0.67815363 0.71912414 0.82739246 0.28838992 0.7376474 0.0129347015
0.0016239943 0.6198984 0.43772453 0.44739163 0.14394704 0.28743604 0.7859344 0.009689866
0.95224977 0.4661038 0.18836962 0.59584475 0.31586275 0.55023664 0.73717827 0.1941699
0.0008344051
00000000: 746e c93e 80f2 9e3e 7a9b 2d3f 8518 383f
00000010: fecf 533f d8a7 933e 76d6 3c3f 12ec 533c
00000020: 35dc d43a a9b1 1e3f 6e1d e03e 8410 e53e
00000030: da66 133e d12a 933e ff32 493f 3ec2 1e3c
00000040: a4c6 733f 28a5 ee3e f7e3 403e 4889 183f
00000050: c3b8 a13e 4fdc 0c3f b7b7 3c3f 79d4 463e
00000060: fabb 5a3a

conv1.1.bias f4 [25]
0.06650294 -0.16341406 -0.038587354 -0.04400096 -0.0712266 -0.008408639 -0.037403297 -0.050044563
-0.029674623 -0.14363742 -0.0803774 -0.016589899 -0.07216059 0.011967778 -0.115778066 -0.046797097
0.018893614 -0.019963738 -0.010179858 -0.086563796 0.008464406 -0.019007 -0.05527256 -0.04277314
-0.012972692
00000000: b232 883d 0456 27be c60d 1ebd 5a3a 34bd
00000010: 40df 91bd 63c4 09bc 3334 19bd 87fb 4cbd
00000020: 3218 f3bc b015 13be e89c a4bd 8ae7 87bc
00000030: eec8 93bd 8014 443c 0d1d edbd 50ae 3fbd
00000040: c8c6 9a3c fe8a a3bc 6bc9 26bc 5c48 b1bd
00000050: 4bae 0a3c 91b4 9bbc 7b65 62bd e332 2fbd
00000060: 6a8b 54bc

conv1.1.running_mean f4 [25]
-0.30287883 -0.1629726 -0.40301046 0.18092448 -0.4020403 -0.0116173485 -0.058187824 -0.24240601
-0.3724289 -0.16085918 -0.29208165 0.04152218 0.4004646 -0.29311356 -0.27527922 0.29670534
0.2219569 0.047930174 -0.41191012 -0.13084027 -0.14649637 0.36838105 0.4607688 0.07856182
-0.28417698
00000000: ef12 9bbe 4ae2 26be 6357 cebe 4444 393e
00000010: 3ad8 cdbe b156 3ebc 5b56 6ebd 4839 78be
00000020: 00af bebe 45b8 24be ba8b 95be 2913 2a3d
00000030: b209 cd3e fb12 96be 66f1 8cbe c3e9 973e
00000040: ab48 633e 6e52 443d e2e5 d2be fefa 05be
00000050: 2503 16be 719c bc3e e3e9 eb3e 05e5 a03d
00000060: a57f 91be

conv1.1.running_var f4 [25]
3.7790477 7.9268847 14.970664 12.634169 0.939187 4.9266453 21.467743 7.734643
1.7279478 1.4662561 2.9745529 1.9743035 1.3180835 9.688824 5.7432747 7.1922817
4.831384 2.4208443 17.949858 13.234101 17.68178 4.1967573 6.6478195 28.854864
3.5320008
00000000: ebdb 7140 0aa9 fd40 d787 6f41 8e25 4a41
00000010: 8f6e 703f 14a7 9d40 f0bd ab41 3282 f740
00000020: 652d dd3f 48ae bb3f 135f 3e40 fab5 fc3f
00000030: f6b6 a83f 6c05 1b41 e8c8 b740 2c27 e640
00000040: b39a 9a40 1def 1a40 4f99 8f41 e1be 5341
00000050: 4974 8d41 d64b 8640 f0ba d440 c3d6 e641
00000060: 4d0c 6240

conv1.3.weight f4 [25, 25, 2, 1]
0.14170332 -0.13964917 0.017863186 -0.15747942 -0.06831055 -0.035085708 -0.12295703 0.08074785
-0.109137565 0.19792514 -0.13436009 -0.031147951 0.018376263 0.0723183 -0.019381925 -0.18434685
-0.10738848 -0.051037572 -0.18398367 0.07460805 0.09351776 -0.039568532 0.06767444 -0.16632757
-0.07359288 0.08779263 0.077468455 -0.06973021 0.108266324 0.13768984 -0.046749715 0.03677533
-0.09111955 0.025771126 -0.0027326175 0.06841021 0.0135323405 -0.13603881 0.07319332 0.14103988
0.102443375 -0.15322141 -0.11384369 0.10799852 0.059146106 -0.08437608 -0.07506897 0.030142952
0.12811469 -0.115385294 0.057532202 -0.17922123 -0.12484657 0.05924285 0.12649855 0.0016545213
-0.07689953 0.0043774154 -0.1058247 0.25490692 -0.111332804 0.024838848 -0.09627262 0.031280752
-0.018602304 0.003298535 0.109639704 -0.11297232 -0.08920723 0.114832014 -0.14689186 -0.12821493
0.016967857 -0.059564162 0.013888599 0.08884434 0.05277255 0.02928167 -0.043275483 -0.03892138
0.0025019078 -0.24015537 0.021450842 -0.12129884 -0.010924085 0.1123455 -0.0069945413 -0.07386334
0.04908418 0.020922571 0.124259055 -0.057806727 0.09332147 0.14620633 0.020445308 -0.16237721
-0.008419525 -0.14546925 -0.023825929 -0.017512819 -0.062582925 0.09343669 -0.07828211 -0.27615476
0.07599705 -0.046968285 -0.08457294 -0.03859794 -0.14110711 -0.1064583 -0.0051020873 0.0057355254
0.001331108 0.06443574 -0.06148211 0.06614176 -0.05999106 -0.004703288 0.029876769 -0.15296803
-0.020921689 -0.106813155 0.023888811 0.15349367 -0.004791327 0.14013293 0.068773374 -0.3489629
0.035452273 0.2065199 -0.17434062 -0.0580807 -0.090508744 0.23346576 -0.20347899 0.031759195
-0.026297132 0.11691633 -0.09891649 0.032297604 -0.07912561 0.14001842 -0.007479624 -0.12873468
-0.030336069 -0.12046414 -0.06918996 -0.085917875 -0.037842393 0.07832688 -0.007581444 -0.06381303
0.042177476 -0.10983468 0.07688773 -0.09541583 0.00575019 0.13740455 -0.05990164 -0.049397342
-0.15373105 0.016668178 0.1518332 -0.104961306 0.07883882 -0.09491519 -0.044880092 -0.12344587
-0.086253054 0.036676224 -0.086463995 0.122198395 0.055850636 0.11730459 -0.020762075 0.08350704
0.016724547 -0.09082129 -0.09021696 -0.053182885 -0.14989796 0.070499144 -0.12039054 0.13936825
0.06198457 -0.13281775 0.121677615 -0.08462603 -0.16869679 -0.031798944 -0.0050379205 -0.029901791
0.1468203 -0.19832194 0.08315637 0.091325484 0.09360786 0.15563262 0.06879569 0.12821138
0.102224015 0.17224672 -0.11587803 -0.0032604772 -0.1700891 0.18169947 0.09136057 -0.17302835
-0.040536303 -0.108719476 -0.018902259 0.06302027 -0.10856916 0.12016728 0.08236432 -0.11031545
-0.027320433 -0.12052054 -0.031622943 0.10691526 0.06349006 -0.07395878 -0.042943977 0.18019056
0.05078704 -0.247398 0.032833137 0.17543381 -0.13637689 -0.043481454 0.055841964 -0.17478684
0.0991021 0.08291467 0.04616293 -0.16888078 -0.13218328 -0.019074097 0.13898124 -0.044601917
0.077888675 -0.006556293 -0.03996909 0.02179958 -0.02892115 -0.15312122 0.05174202 -0.037722785
0.10562849 -0.02891375 0.048590295 0.04529956 0.0010677958 0.053952426 -0.10133202 0.09945769
00000000: ad1a 113e 3100 0fbe d155 923c 4942 21be
00000010: 67e6 8bbd 08b6 0fbd e5d0 fbbd 215f a53d
00000020: 8483 dfbd e3ac 4a3e b195 09be fd29 ffbc
00000030: d189 963c 9e1b 943d d8c6 9ebc 6cc5 3cbe
00000040: 7eee dbbd c60c 51bd 3766 3cbe 1bcc 983d
00000050: 3d86 bf3d 9d12 22bd e698 8a3d c651 2abe
00000060: ddb7 96bd 9fcc b33d c8a7 9e3d b6ce 8ebd
00000070: bcba dd3d 91fe 0c3e a17c 3fbd baa1 163d
00000080: e39c babd f81d d33c b715 33bb a71a 8c3d
00000090: c0b6 5d3c c24d 0bbe 61e6 953d c26c 103e
000000a0: d5cd d13d 13e6 1cbe e126 e9bd 542e dd3d
000000b0: 3043 723d 5ecd acbd c3bd 99bd 5aee f63c
000000c0: 7f30 033e 204f ecbd e3a6 6b3d c585 37be
000000d0: 8faf ffbd a1a8 723d d688 013e 86dc d83a
000000e0: 807d 9dbd 6c70 8f3b 9fba d8bd 2983 823e
000000f0: 7402 e4bd d77a cb3c 942a c5bd 3f20 003d
00000100: dc63 98bc 3c2c 583b c88a e03d 085e e7bd
00000110: 48b2 b6bd 0c2d eb3d d26a 16be c64a 03be
00000120: 2d00 8b3c 8df9 73bd 028d 633c 05f4 b53d
00000130: 0828 583d 1de0 ef3c a241 31bd 066c 1fbd
00000140: 0cf7 233b 4aeb 75be adb9 af3c 876b f8bd
00000150: effa 32bc 6615 e63d 7732 e5bb aa45 97bd
00000160: 7e0c 493d d065 ab3c 887b fe3d bfc6 6cbd
00000170: 541f bf3d 1db7 153e eb7c a73c 3646 26be
00000180: 0cf2 09bc e4f5 14be 982e c3bc 0b77 8fbc
00000190: 7a2b 80bd bc5b bf3d 5f52 a0bd 2864 8dbe
000001a0: 57a4 9b3d d161 40bd 9434 adbd e018 1ebd
000001b0: 627e 10be cf06 dabd 692f a7bb 13f1 bb3b
000001c0: 9378 ae3a e3f6 833d aad4 7bbd 5575 873d
000001d0: 30b9 75bd 0a1e 9abb 20c0 f43c a7a3 1cbe
000001e0: f663 abbc dbc0 dabd 78b2 c33c 722d 1d3e
000001f0: 9000 9dbb 027f 0f3e 0ed9 8c3d 44ab b2be
00000200: 6736 113d f479 533e 5986 32be 07e6 6dbd
00000210: a65c b9bd a611 6f3e cc5c 50be ee15 023d
00000220: 156d d7bc d471 ef3d bb94 cabd 7e4a 043d
00000230: 9c0c a2bd fd60 0f3e a217 f5bb 06d3 03be
00000240: 5983 f8bc e7b5 f6bd 77b3 8dbd b6f5 afbd
00000250: a000 1bbd d869 a03d c36d f8bb 68b0 82bd
00000260: 4ac2 2c3d 01f1 e0bd 5077 9d3d 6069 c3bd
00000270: 176c bc3b c7b3 0c3e 6c5b 75bd de54 4abd
00000280: ac6b 1dbe b48b 883c 2a7a 1b3e f4f5 d6bd
00000290: 3f76 a13d e562 c2bd 30d4 37bd 30d1 fcbd
000002a0: 71a5 b0bd cf39 163d 0914 b1bd 2743 fa3d
000002b0: a3c3 643d 643d f03d 3a15 aabc bd05 ab3d
000002c0: eb01 893c 8300 babd abc3 b8bd 4cd6 59bd
000002d0: da7e 19be db61 903d 518f f6bd 8db6 0e3e
000002e0: 88e3 7d3d 6001 08be 1d32 f93d 6950 adbd
000002f0: dabe 2cbe 9c3f 02bd 2415 a5bb 9af4 f4bc
00000300: 1058 163e e814 4bbe e34d aa3d db08 bb3d
00000310: 7ab5 bf3d 285e 1f3e c1e4 8c3d d849 033e
00000320: d35a d13d 7261 303e 7651 edbd bbad 55bb
00000330: d62b 2ebe 6d0f 3a3e 401b bb3d 582e 31be
00000340: 6509 26bd 51a8 debd e9d8 9abc c510 813d
00000350: 8259 debd 431a f63d a0ae a83d 11ed e1bd
00000360: 1acf dfbc 79d3 f6bd 0f87 01bd 63f6 da3d
00000370: 1407 823d b377 97bd 06e6 2fbd e083 383e
00000380: 1206 503d e755 7dbe 0a7c 063d eca4 333e
00000390: 62a6 0bbe 9c19 32bd 8bba 643d 52fb 32be
000003a0: 0bf6 ca3d 2bcf a93d 5715 3d3d 15ef 2cbe
000003b0: 0e5b 07be 4841 9cbc 1951 0e3e 80b0 36bd
000003c0: 1984 9f3d 2cd6 d6bb a1b6 23bd 0895 b23c
000003d0: 0cec ecbc cfcb 1cbe 71ef 533d 3583 1abd
000003e0: c053 d83d 87dc ecbc 9e06 473d 088c 393d
000003f0: 48f5 8b3a 38fd 5c3d 2987 cfbd 79b0 cb3d

conv1.3.bias f4 [25]
0.047255013 0.022753334 -0.023848927 0.12104535 0.17987727 -0.05480007 -0.033257578 -0.10252162
-0.07586968 0.060577795 -0.006871788 0.059913944 0.13386972 0.0060254335 -0.11841646 0.028930765
0.10465469 0.09324561 -0.10429588 -0.13423935 0.12083855 -0.048211068 -0.041934703 -0.12717968
-0.11218009
00000000: 798e 413d 3365 ba3c d35e c3bc a0e6 f73d
00000010: bf31 383e 0a76 60bd 1939 08bd dbf6 d1bd
00000020: 9061 9bbd 6c20 783d bc2c e1bb 5368 753d
00000030: 2515 093e 0071 c53b 5484 f2bd 3600 ed3c
00000040: 3355 d63d 8ef7 be3d 1499 d5bd 0a76 09be
00000050: 347a f73d f878 45bd b9c3 2bbd 643b 02be
00000060: adbe e5bd

conv1.4.weight f4 [25]
0.62582654 0.57477945 0.20576134 0.69711035 0.7634029 0.8578803 0.66400164 0.51141834
0.653428 0.6736812 0.6003928 0.8425176 0.6871787 0.49175498 0.24457903 0.21840005
0.68650573 0.34270534 0.18796553 0.9304943 0.33405176 0.23351021 0.8390394 0.19199513
0.44904494
00000000: 2b36 203f bf24 133f 1ab3 523e d375 323f
00000010: 5f6e 433f 0b9e 5b3f 03fc 293f 50ec 023f
00000020: 0f47 273f 5f76 2c3f 58b3 193f 3caf 573f
00000030: f1ea 2f3f 4fc7 fb3e ed72 7a3e 43a4 5f3e
00000040: d7be 2f3f 1377 af3e 097a 403e e034 6e3f
00000050: d508 ab3e 4d1d 6f3e 49cb 563f 5f9a 443e
00000060: 38e9 e53e

conv1.4.bias f4 [25]
-0.18400297 -0.11710031 0.053581357 -0.09389333 -0.07496094 -0.20331636 -0.14954226 -0.073602736
-0.06484774 -0.16865177 -0.0316196 -0.10264183 -0.25162345 -0.06321365 -0.041232217 0.0031869803
-0.015344686 0.0033116154 -0.05234682 -0.02442846 -0.11480978 0.053730216 -0.15200481 -0.11684125
-0.09130781
00000000: 466b 3cbe 4ad2 efbd 2078 5b3d 254b c0bd
00000010: 1f85 99bd 2a32 50be 9b21 19be 08bd 96bd
00000020: e4ce 84bd 0db3 2cbe 8e83 01bd e135 d2bd
00000030: cad4 80be 2876 81bd 1de3 28bd a8dc 503b
00000040: 4768 7bbc b007 593b 9e69 56bd 321e c8bc
00000050: 6421 ebbd 3714 5c3d 26a7 1bbe 774a efbd
00000060: 97ff babd

conv1.4.running_mean f4 [25]
0.0627887 -0.00581782 -0.10011594 0.09922175 0.19153567 -0.17351322 -0.009712788 -0.22363035
-0.028499417 0.04730129 0.08369909 0.100609176 0.16842842 -0.10093023 -0.18015133 -0.013599858
-0.025255965 0.017653665 -0.0047929995 -0.21117973 0.04527199 -0.085878566 -0.18233337 -0.11969961
-0.14792198
00000000: 5d97 803d 69a3 bebb 9609 cdbd c634 cb3d
00000010: ed21 443e 73ad 31be 6322 1fbc 5bff 64be
00000020: 9c77 e9bc ffbe 413d 6e6a ab3d 2f0c ce3d
00000030: 8078 2c3e 82b4 cebd 9779 38be f0d1 5ebc
00000040: 99e5 cebc 6b9e 903c 980e 9dbb 803f 58be
00000050: 1f6f 393d 1ae1 afbd 99b5 3abe 1225 f5bd
00000060: dc78 17be

conv1.4.running_var f4 [25]
0.029877063 0.044546474 0.0585469 0.04218893 0.06215819 0.04013991 0.028831882 0.058032166
0.025551083 0.025335329 0.060989287 0.078504734 0.047360666 0.06240996 0.036298096 0.05924406
0.05565963 0.04230668 0.07097939 0.03397187 0.02608335 0.028009592 0.036654048 0.059991375
0.029332215
00000000: bec0 f43c 5d76 363d e0ce 6f3d 4dce 2c3d
00000010: 9699 7e3d bf69 243d d730 ec3c 23b3 6d3d
00000020: 8150 d13c 098c cf3c e7cf 793d 17c7 a03d
00000030: 42fd 413d 96a1 7f3d 50ad 143d e6a9 723d
00000040: 5afb 633d c549 2d3d a45d 913d 1626 0b3d
00000050: c0ac d53c 5f74 e53c 8e22 163d 84b9 753d
00000060: 1d4a f03c

conv2.0.weight f4 [50, 25, 1, 5]
0.057619598 0.0016965482 -0.024878057 0.07915396 -0.15575206 0.05510236 0.014531842 0.007349826
0.15409854 0.05072456 -0.16296959 -0.101086915 -0.04673419 -0.07837697 -0.27637833 -0.03642803
-0.083033435 -0.0611642 0.014639267 -0.031317797 -0.022589445 0.06134742 0.08099365 0.06995028
-0.09170988 8.184389e-06 0.04229593 0.119584516 -0.16077246 0.020447943 -0.28116098 -0.13486001
-0.017035771 -0.06704224 -0.12669788 -0.14051689 -0.046939485 0.1287374 -0.13630472 -0.092646554
-0.087896094 -0.11888277 -0.042172976 -0.2140672 -0.14918932 0.05126544 -0.06279431 0.03337332
-0.12724988 -0.04318992 -0.1494022 -0.08384998 -0.049161926 -0.13919595 -0.10964203 -0.07918165
0.055753756 0.018557422 0.077379115 0.058255322 0.014263271 0.02105295 -0.06995429 0.06113576
0.014248746 0.07447623 0.11905298 0.10484491 0.08890329 0.09227087 0.08671669 0.026518911
0.066387154 0.15538172 -0.070365936 0.08206589 -0.13208017 -0.0484933 -0.029206002 -0.0055647707
0.02609658 0.029965196 0.0027669817 0.11257372 0.2541188 0.23514688 0.062252834 -0.0060451617
0.0941543 0.050111596 -0.100427836 -0.16858709 -0.038740266 -0.03628879 -0.1310547 0.12238552
0.0012360669 0.056673907 0.19571327 -0.07209846 -0.037089597 0.045413572 -0.087747134 -0.0789148
-0.1704293 0.13241154 -0.04814723 0.015030425 0.23183143 0.022782087 -0.09889592 -0.10845504
0.0071735256 -0.033524636 -0.008166137 0.027223771 0.13105398 -0.03746648 0.041159354 0.0867767
0.021790994 -0.052923948 0.086308286 0.14715767 -0.22401974 0.009993776 -0.03528563 0.0122255795
-0.052221593 0.03574261 0.03452221 -0.06457839 -0.0029559492 -0.009185377 -0.015754096 -0.09207343
0.0054838546 -0.04319702 -0.08151691 -0.088674694 0.014034751 0.08314743 0.030372232 0.059401363
0.11239383 -0.062409773 0.00896417 -0.063217215 -0.015259353 -0.107804015 -0.0874797 -0.04215057
0.08582073 0.14814383 0.018459018 0.14875692 0.023428667 0.024137849 -0.0587361 0.09058371
0.12749541 0.1114323 0.0561845 0.15379898 0.083290115 0.017417964 0.042368338 0.0265834
0.06809053 -0.05540293 -0.08033091 0.019657101 0.060317356 0.10081564 -0.084715314 0.13642396
-0.0075465585 0.13860352 -0.0314591 -0.045579933 -0.0658785 -0.107030205 -0.10998839 -0.048191562
-0.10650354 0.046594433 0.015893051 -0.04726008 -0.066305704 0.07637165 -0.019613083 0.083178185
-0.03429794 0.08740556 0.056903217 -0.05482778 -0.030528964 0.053352553 0.017458145 0.017430723
0.025326533 -0.04715753 -0.0007738729 -0.031930625 -0.10053905 -0.10014952 0.06966948 0.051354833
-0.013674754 -0.024838196 -0.049702745 0.04660145 -0.110874616 0.11312995 -0.13986057 0.13802956
0.021974364 0.067984246 -0.016751288 -0.035555024 -0.020575238 -0.033860426 0.015515843 -0.01912436
-0.05735157 -0.028478742 0.026052114 0.058678254 0.044702373 0.011455704 0.047765434 0.02887326
0.09043717 -0.08968938 -0.032589525 0.038172256 -0.0039953515 0.08910565 0.119701594 0.15269122
0.08863409 -0.037959874 0.006114127 0.034948513 -0.046304565 -0.031952728 -0.08085916 -0.022724934
0.043478556 -0.06900392 -0.0004626673 0.11019259 0.027746608 -0.01634167 -0.03262157 -0.17068794
00000000: 8702 6c3d b65e de3a 11cd cbbc 791b a23d
00000010: 787d 1fbe 03b3 613d f716 6e3c cfd6 f03b
00000020: 02cc 1d3e 8ec4 4f3d 80e1 26be a806 cfbd
00000030: 5a6c 3fbd 1b84 a0bd 7681 8dbe 8f35 15bd
00000040: 6f0d aabd 5087 7abd 89d9 6f3c 1747 00bd
00000050: 800d b9bc 6f47 7b3d 00e0 a53d 1842 8f3d
00000060: 64d2 bbbd af4f 0937 7f3e 2d3d bae8 f43d
00000070: 89a1 24be 7282 a73c 55f4 8fbe be18 0abe
00000080: 9a8e 8bbc 714d 89bd 17bd 01be a9e3 0fbe
00000090: 9e43 40bd bdd3 033e 7793 0bbe 7abd bdbd
000000a0: de02 b4bd cf78 f3bd 92bd 2cbd 6f34 5bbe
000000b0: 16c5 18be b6fb 513d 4e9a 80bd 76b2 083d
000000c0: cb4d 02be eae7 30bd e4fc 18be 8ab9 abbd
000000d0: 045e 49bd 6289 0ebe 008c e0bd fd29 a2bd
000000e0: 0d5e 643d bc05 983c f178 9e3d 229d 6e3d
000000f0: 7fb0 693c 3c77 ac3c 3244 8fbd 7e69 7a3d
00000100: 9373 693c fe86 983d 0cd2 f33d eeb8 d63d
00000110: ee12 b63d 83f8 bc3d 8598 b13d 303e d93c
00000120: fdf5 873d 631c 1f3e 041c 90bd 2912 a83d
00000130: 0640 07be e9a0 46bd 6d41 efbc ae58 b6bb
00000140: 7fc8 d53c 9279 f53c 4056 353b 0d8d e63d
00000150: dc1b 823e 58ca 703e d4fc 7e3d 7e16 c6bb
00000160: f8d3 c03d d141 4d3d 1cad cdbd 18a2 2cbe
00000170: 1dae 1ebd 8ea3 14bd 3433 06be 42a5 fa3d
00000180: 8603 a23a e622 683d 0f69 483e 5ba8 93bd
00000190: 43eb 17bd 9503 3a3d c5b4 b3bd 159e a1bd
000001a0: 0585 2ebe e496 073e 0836 45bd 2c42 763c
000001b0: 3865 6d3e 80a1 ba3c f289 cabd ad1d debd
000001c0: e50f eb3b 2151 09bd 43cb 05bc 6304 df3c
000001d0: 0433 063e 7476 19bd b696 283d fcb7 b13d
000001e0: 0783 b23c c8c6 58bd 66c2 b03d 80b0 163e
000001f0: 6e65 65be efbc 233c aa87 10bd cc4d 483c
00000200: 4fe6 55bd d866 123d 2967 0d3d ad41 84bd
00000210: 99b8 41bb 437e 16bc bc0e 81bc ff90 bcbd
00000220: e8b1 b33b 5cef 30bd 56f2 a6bd 149b b5bd
00000230: 03f2 653c 3349 aa3d 30cf f83c d84e 733d
00000240: bd2e e63d 64a1 7fbd 74de 123c 0778 81bd
00000250: 5e02 7abc 5ac8 dcbd 8f28 b3bd 13a6 2cbd
00000260: c7c2 af3d 04b3 173e 5e37 973c bc53 183e
00000270: 7aed bf3c bdbc c53c 4495 70bd f483 b93d
00000280: 288e 023e 9e36 e43d b821 663d 7b7d 1d3e
00000290: 0294 aa3d 1eb0 8e3c 6c8a 2d3d 6ec5 d93c
000002a0: 0c73 8b3d 2fee 62bd 8884 a4bd ee07 a13c
000002b0: 550f 773d 6e78 ce3d 397f adbd b9b2 0b3e
000002c0: 1f49 f7bb 15ee 0d3e 42db 00bd 06b2 3abd
000002d0: 4feb 86bd a732 dbbd 9841 e1bd 8464 45bd
000002e0: 871e dabd ced9 3e3d 2532 823c c993 41bd
000002f0: 49cb 87bd bd68 9c3d 9eab a0bc 5359 aa3d
00000300: ff7b 0cbd b001 b33d 5913 693d 1893 60bd
00000310: e117 fabc 3588 5a3d 6204 8f3c e0ca 8e3c
00000320: 9779 cf3c 4128 41bd bbdd 4aba b0c9 02bd
00000330: 6be7 cdbd 311b cdbd dfae 8e3d 7259 523d
00000340: 130c 60bc 7979 cbbc 1b95 4bbd 29e1 3e3d
00000350: 3b12 e3bd adb0 e73d 9c37 0fbe 9f57 0d3e
00000360: 9503 b43c 533b 8b3d ff39 89bc 25a2 11bd
00000370: 678d a8bc 3bb1 0abd 2a36 7e3c b1aa 9cbc
00000380: 7be9 6abd 404c e9bc 3e6b d53c 9c58 703d
00000390: d619 373d b5b0 3b3c b0a5 433d 9d87 ec3c
000003a0: 1f37 b93d 11af b7bd 987c 05bd 835a 1c3d
000003b0: 70eb 82bb 067d b63d 1c26 f53d 165b 1c3e
000003c0: ca85 b53d d07b 1bbd 0459 c83b 2c26 0f3d
000003d0: dba9 3dbd dde0 02bd 7d99 a5bd a429 babc
000003e0: 9216 323d ed51 8dbd 2792 f2b9 a7ac e13d
000003f0: db4c e33c f7de 85bc 329e 05bd d2c8 2ebe

conv2.0.bias f4 [50]
0.06999099 0.046706818 0.04797109 0.0010765505 0.017017713 -0.05598062 0.0073400214 -0.0072068213
-0.041332517 0.056279752 0.072373696 0.06275193 0.09237387 0.033096734 -0.025651809 -0.08633522
-0.07909765 0.056462657 0.058708314 0.022949448 -0.055826124 0.0019689088 -0.00885332 -0.013855078
0.045272622 -0.019324388 -0.011287859 -0.0370022 0.065853715 -0.04237932 -0.033630244 -0.082413524
-0.08308397 -0.0408385 0.010752686 0.0877402 0.05842715 -0.05655759 -0.03033756 -0.017542738
-0.040800944 -0.04876535 -0.028826864 0.025158094 -0.046034593 0.0720837 0.025887784 0.07145906
0.05312661 -0.06483043
00000000: 7057 8f3d a64f 3f3d 557d 443d 0a1b 8d3a
00000010: bb68 8b3c ef4b 65bd 9084 f03b 3327 ecbb
00000020: 494c 29bd 9985 663d a938 943d 1584 803d
00000030: 832e bd3d 7190 073d be23 d2bc 85d0 b0bd
00000040: f3fd a1bd 6345 673d 2178 703d 7b00 bc3c
00000050: efa9 64bd cf08 013b 840d 11bc 6900 63bc
00000060: c96f 393d 2e4e 9ebc b6f0 38bc 9e8f 17bd
00000070: 50de 863d f095 2dbd debf 09bd 6cc8 a8bd
00000080: ee27 aabd 4546 27bd 092c 303c 22b1 b33d
00000090: 4f51 6f3d eea8 67bd 7a86 f8bc cab5 8fbc
000000a0: e41e 27bd 2dbe 47bd 5126 ecbc 5918 ce3c
000000b0: c58e 3cbd 9ea0 933d 9e12 d43c 2159 923d
000000c0: 4a9b 593d d1c5 84bd

conv2.1.weight f4 [50]
0.25523847 0.7528397 0.63756245 0.7700334 0.35163397 0.77785057 0.8394008 0.22608352
0.813309 0.15115558 0.29778323 0.21619706 0.30230117 0.4528821 0.54596275 0.6975479
0.7109766 0.71165234 0.006339547 0.75199133 0.47251683 0.44868082 0.63297665 0.9390016
0.44717914 0.31444928 0.83994985 0.36408627 0.13724534 0.616471 0.63892066 0.18895388
0.20948263 -0.014210331 0.693061 0.3848259 0.22705026 0.66250277 0.39194047 0.99534893
0.42073685 0.51193684 0.43154 0.26165542 0.7715409 0.36956936 0.67119735 0.640887
0.3739821 0.23535538
00000000: 9eae 823e 1aba 403f 4b37 233f e920 453f
00000010: 5e09 b43e 3721 473f f9e2 563f 7082 673e
00000020: 0535 503f 87c8 1a3e 0b77 983e c362 5d3e
00000030: 38c7 9a3e 2ae0 e73e 37c4 0b3f 8092 323f
00000040: 9002 363f d92e 363f fabb cf3b 8182 403f
00000050: baed f13e 7eb9 e53e c20a 223f 6962 703f
00000060: aaf4 e43e 7fff a03e f406 573f 8469 ba3e
00000070: 0b8a 0c3e 0bd1 1d3f 4e90 233f 207d 413e
00000080: 9d82 563e 73d2 68bc 726c 313f e607 c53e
00000090: dd7f 683e c899 293f 6cac c83e 30cf 7e3f
000000a0: d26a d73e 4b0e 033f d0f2 dc3e b3f7 853e
000000b0: b483 453f 3238 bd3e 97d3 2b3f 2c11 243f
000000c0: 957a bf3e 0001 713e

conv2.1.bias f4 [50]
-0.029744336 -0.2747166 -0.18613161 -0.12050422 -0.033665262 -0.06427962 -0.17863569 0.037134178
-0.11346113 -0.21379893 -0.080051556 -0.14901794 -0.09879366 -0.15934408 -0.13619761 -0.2496538
-0.044676837 -0.16622049 -0.16038069 -0.32072246 -0.09249964 -0.19253899 -0.13677207 -0.09057893
-0.23224168 -0.27502042 -0.2583909 -0.09966535 -0.0932569 -0.11166751 -0.15774842 0.025206605
-0.117868215 -0.12800068 -0.14318839 0.0043817693 -0.090418614 -0.10312618 -0.24450932 -0.08934977
-0.19308265 -0.11415563 0.0128609 -0.02388578 -0.20836134 -0.11304645 -0.33436504 -0.3111783
-0.12015767 -0.025596581
00000000: 65aa f3bc a7a7 8cbe 4999 3ebe ebca f6bd
00000010: 96e4 09bd 09a5 83bd 46ec 36be 021a 183d
00000020: 4f5e e8bd 1bee 5abe 12f2 a3bd 2998 18be
00000030: 5554 cabd 182b 23be 6377 0bbe 3fa5 7fbe
00000040: 0fff 36bd b435 2abe d63a 24be bc35 a4be
00000050: 7470 bdbd f128 45be fa0d 0cbe 7281 b9bd
00000060: c3d0 6dbe 7acf 8cbe d04b 84be 591d ccbd
00000070: 79fd bebd efb1 e4bd cd88 21be 157e ce3c
00000080: e464 f1bd 9c12 03be fa9f 12be f294 8f3b
00000090: 652d b9bd d233 d3bd a760 7abe 03fd b6bd
000000a0: 75b7 45be 6dca e9bd 86b6 523c 1cac c3bc
000000b0: ad5c 55be e684 e7bd e531 abbe c352 9fbe
000000c0: 3915 f6bd ecaf d1bc

conv2.1.running_mean f4 [50]
-0.10902293 0.21239305 0.13257858 -0.46006247 -0.29123718 -0.5134378 -0.22639476 -0.44776484
-0.82313186 0.78792566 -0.26587394 0.94520634 -0.26631486 0.16298941 -0.20537548 0.23257315
-0.5975199 -0.16064191 1.2128178 0.13654459 -0.472532 0.015975764 -0.6258016 -0.48794627
-0.3853654 0.39183804 -0.06881267 -0.44030628 -0.23730114 -1.0194734 0.25216502 -0.69110703
0.25377968 0.45124552 -0.771902 -0.44489413 -0.02100137 0.032183364 -0.07458696 -0.87208426
0.51585203 -0.33074412 -1.0938331 -0.4811903 -0.09407031 0.08574759 0.09273616 0.2963116
-0.8358936 -0.8273863
00000000: 6a47 dfbd 907d 593e aec2 073e 4f8d ebbe
00000010: 0a1d 95be a970 03bf 07d4 67be 6f41 e5be
00000020: c5b8 52bf 7fb5 493f a120 88be 0bf9 713f
00000030: 6c5a 88be b2e6 263e f34d 52be a827 6e3e
00000040: 10f7 18bf 507f 24be 9d3d 9b3f 58d2 0b3e
00000050: b7ef f1be 9bdf 823c 8934 20bf 18d4 f9be
00000060: 9d4e c5be ff9e c83e a8ed 8cbd d36f e1be
00000070: 12ff 72be 1b7e 82bf c61b 813e 64ec 30bf
00000080: 69ef 813e a709 e73e 5f9b 45bf 2ac9 e3be
00000090: 110b acbc b4d2 033d 0cc1 98bd ea40 5fbf
000000a0: e10e 043f 4b57 a9be b902 8cbf 935e f6be
000000b0: efa7 c0bd 6f9c af3d 75ec bd3d 27b6 973e
000000c0: 1ffd 55bf 97cf 53bf

conv2.1.running_var f4 [50]
0.8355975 0.39378008 0.49620184 0.5774862 0.49495953 0.7974967 0.25497562 0.748856
0.5032348 0.60400754 0.3976227 0.45069396 0.39043352 0.3514447 0.34690395 0.17840596
0.73101604 0.3555995 0.37026948 0.2622406 0.56775314 0.27570984 0.21009344 0.4508089
0.445194 0.31554693 0.38207063 0.32202798 0.35181278 0.9479444 0.25197098 0.5978424
0.5108509 0.14353615 0.53800994 0.61451215 0.4319323 0.49262863 0.28828844 0.54307556
0.45362133 0.40280306 0.49697855 0.68944675 0.2327181 0.29064643 0.34182742 0.2280633
0.34593216 0.9124744
00000000: b8e9 553f 8b9d c93e 2b0e fe3e 23d6 133f
00000010: 566b fd3e be28 4c3f 2a8c 823e 07b5 3f3f
00000020: ffd3 003f 3da0 1a3f 3495 cb3e 5cc1 e63e
00000030: e7e6 c73e 8ff0 b33e 659d b13e 0db0 363e
00000040: de23 3b3f 2311 b63e f693 bd3e 6644 863e
00000050: 4558 113f d729 8d3e bc22 573e 6dd0 e63e
00000060: 78f0 e33e 5e8f a13e c39e c33e dae0 a43e
00000070: ce20 b43e 7cac 723f 5702 813e 330c 193f
00000080: 20c7 023f 24fb 123e 05bb 093f ab50 1d3f
00000090: 3b26 dd3e d239 fc3e 8b9a 933e 0007 0b3f
000000a0: 0e41 e83e 343c ce3e f973 fe3e 957f 303f
000000b0: a74d 6e3e 9ccf 943e 0104 af3e 6d89 693e
000000c0: 051e b13e ec97 693f

conv3.0.weight f4 [100, 50, 1, 5]
-0.078268975 -0.065355234 0.083867915 0.0127342725 0.008960644 -0.1569426 -0.04150318 -0.023818068
-0.009639679 0.07389136 -0.044770636 0.030006597 0.025404245 0.04542325 0.021088399 -0.1110197
-0.0134155 -0.07490164 0.049430124 -0.09149668 -0.0017626522 -0.08403992 0.047070306 -0.046247505
-0.03609791 -0.07112883 -0.1476906 -0.11627085 -0.113416314 -0.109860495 0.053487986 0.08484192
0.040598888 -0.11332332 -0.025038203 0.038574196 0.044383954 -0.05134492 -0.05711813 -0.10367248
0.03537047 0.109465316 -0.018116232 -0.028529806 0.098664366 0.01436599 -0.021922898 -0.095698655
0.04624845 -0.007814742 -0.23450468 0.049606074 0.07774778 -0.04396482 -0.08032468 0.009914653
-0.10487379 -0.11161715 -0.008761691 -0.03362504 -0.18102665 -0.1562353 -0.016740514 -0.002270444
-0.095131874 0.061038356 0.14013675 0.1268589 -0.026050575 -0.014890093 -0.030968893 0.054791093
-0.12990814 0.084486574 -0.1429877 -0.04399189 -0.1481943 0.013503743 -0.034736942 0.047027472
0.019744307 0.0016110362 -0.064083576 -0.10622906 -0.025557227 -0.051438082 0.010064418 0.045590952
0.03207154 -0.041315775 -0.021933367 0.057836868 0.03648395 0.0762532 0.030451564 -0.1216838
-0.072355516 0.014436635 0.041457333 -0.087147 -0.15481111 -0.094457544 -0.09660629 -0.114641264
0.029583154 -0.17666526 -0.051881775 -0.011282305 0.091726445 0.027625851 -0.18018152 -0.075893536
0.05238301 -0.02419874 -0.10797509 -0.052949622 -0.104309306 -0.16187072 -0.12707546 -0.10633375
-0.033171285 -0.06580676 0.12159243 0.101132646 0.013762185 0.010624053 -0.08322375 -0.02511223
0.06478873 -0.035036746 -0.044581067 -0.07328727 0.10964397 -0.014065745 -0.030752081 -0.16974162
-0.04456976 0.0311234 0.08898298 -0.17693377 0.053187385 -0.15956634 -0.0036188595 0.1656492
0.028668853 0.11125285 0.01403025 -0.026064247 -0.123085216 0.006136887 -0.09462092 0.07413822
0.08484744 0.09188336 -0.12557015 0.099170506 0.14731722 -0.043587197 -0.10088837 -0.025066538
-0.053525787 -0.12638889 -0.1027813 0.011455926 -0.12114862 -0.032891046 -0.015294181 0.022092024
0.007458293 0.026446879 0.09664742 0.10241926 0.06014658 -0.027343115 0.118200496 -0.20558347
-0.17474905 -0.092008114 -0.105529256 -0.14711045 -0.05491176 -0.028020103 0.01436685 -0.05941744
0.05605936 0.0345463 -0.058687 -0.024870675 0.01501532 -0.019571709 -0.0228071 0.08436612
0.09610743 0.1013051 -0.0001263772 0.08008159 0.068965845 -0.059513424 0.015563882 0.083482325
0.031719886 -0.074353814 0.01288837 -0.034188468 0.01458331 -0.0016572064 0.06927139 0.056917857
0.1350614 -0.02713248 0.009988169 -0.069669284 -0.039458495 0.0043352386 -0.023010064 -0.16328418
0.02400476 -0.0852468 -0.12196504 -0.27243513 0.007361956 0.025608636 0.15334126 0.04018285
0.0015481458 -0.09906614 0.22508886 0.037076227 0.04616065 -0.011962963 -0.023642972 -0.08577101
0.026906867 -0.03057305 -0.017908767 0.017718567 0.007670598 0.04761223 0.025936862 -0.037337795
0.10735146 0.06620477 0.013311355 0.059499726 0.05381964 0.19745299 -0.024898384 0.034668487
0.005931639 0.12068035 -0.021469718 0.080196135 0.104301386 0.015963893 -0.011945944 -0.008987024
00000000: 7c4b a0bd f7d8 85bd f1c2 ab3d 69a3 503c
00000010: aacf 123c 90b5 20be 3dff 29bd 1c1e c3bc
00000020: bfef 1dbc 5a54 973d 6a61 37bd 65d0 f53c
00000030: 901c d03c bb0d 3a3d 94c1 ac3c 4c5e e3bd
00000040: afcc 5bbc 0866 99bd 3e77 4a3d 9d62 bbbd
00000050: cb08 e7ba 1f1d acbd cbcc 403d 066e 3dbd
00000060: 67db 13bd feab 91bd 343c 17be 691f eebd
00000070: d046 e8bd 8afe e0bd 3816 5b3d 9ac1 ad3d
00000080: 054b 263d 0f16 e8bd eb1c cdbc faff 1d3d
00000090: f3cb 353d 0d4f 52bd b3f4 69bd 3d52 d4bd
000000a0: a0e0 103d 5a2f e03d 7e68 94bc 57b7 e9bc
000000b0: 8b10 ca3d 545f 6b3c a697 b3bc a8fd c3bd
000000c0: 046f 3d3d 6709 00bc ff21 70be bd2f 4b3d
000000d0: 3a3a 9f3d 7514 34bd 4481 a4bd 1271 223c
000000e0: 12c8 d6bd 8897 e4bd 328d 0fbc 69ba 09bd
000000f0: 0d5f 39be 25fc 1fbe 6723 89bc bbcb 14bb
00000100: 80d4 c2bd 5b03 7a3d 0280 0f3e 4de7 013e
00000110: 0468 d5bc 94f5 73bc 7ab2 fdbc a06c 603d
00000120: a406 05be 4c07 ad3d 5e6b 12be d730 34bd
00000130: 3fc0 17be ce3e 5d3c 5348 0ebd e19f 403d
00000140: d0be a13c 6829 d33a 403e 83bd 9f8e d9bd
00000150: 645d d1bc bdb0 52bd 3be5 243c 94bd 3a3d
00000160: 725d 033d bb3a 29bd 9bad b3bc 5ae6 6c3d
00000170: 3270 153d a32a 9c3d 8f75 f93c 5b35 f9bd
00000180: 212f 94bd a387 6c3c 2acf 293d 207a b2bd
00000190: ce86 1ebe f572 c1bd 85d9 c5bd 0ac9 eabd
000001a0: 5f58 f23c bde7 34be fc81 54bd 6bd9 38bc
000001b0: 13db bb3d 9c4f e23c 8181 38be 126e 9bbd
000001c0: 918f 563d 703c c6bc 0b22 ddbd b4e1 58bd
000001d0: 1ea0 d5bd 70c1 25be 1220 02be 82c5 d9bd
000001e0: 9dde 07bd b2c5 86bd 7405 f93d a21e cf3d
000001f0: ca7a 613c 8210 2e3c 3771 aabd 2ab8 cdbc
00000200: f4af 843d b182 0fbd a39a 36bd a317 96bd
00000210: 058d e03d 0374 66bc caeb fbbc bfd0 2dbe
00000220: c88e 36bd 80f6 fe3c b53c b63d 202e 35be
00000230: 04db 593d 5c65 23be 632a 6dbb f29f 293e
00000240: f1da ea3c 89d8 e33d 22df 653c b084 d5bc
00000250: 1a14 fcbd f017 c93b 9dc8 c1bd c7d5 973d
00000260: 7fc4 ad3d 582d bc3d 7695 00be e819 cb3d
00000270: 53da 163e 7d88 32bd 909e cebd 5758 cdbc
00000280: db3d 5bbd 176c 01be 017f d2bd a3b1 3b3c
00000290: c51c f8bd c3b8 06bd 7294 7abc 55fa b43c
000002a0: b264 f43b 20a7 d83c 15ef c53d 30c1 d13d
000002b0: 435c 763d abfe dfbc 1a13 f23d 7984 52be
000002c0: 6af1 32be c06e bcbd b91f d8bd 1fa4 16be
000002d0: 27eb 60bd 6a8a e5bc f062 6b3c b45f 73bd
000002e0: 809e 653d 6c80 0d3d c861 70bd 96bd cbbc
000002f0: d102 763c d954 a0bc f5d5 babc 25c8 ac3d
00000300: f9d3 c43d 0c79 cf3d 1f84 04b9 d101 a43d
00000310: f73d 8d3d 59c4 73bd a7ff 7e3c c8f8 aa3d
00000320: b6ec 013d d046 98bd be29 533c 3509 0cbd
00000330: d6ee 6e3c 9f36 d9ba 29de 8d3d b322 693d
00000340: 894d 0a3e ef44 debc 6ba5 233c c5ae 8ebd
00000350: 3b9f 21bd 9e0e 8e3b 9a7f bcbc f833 27be
00000360: a1a5 c43c e095 aebd cfc8 f9bd 9e7c 8bbe
00000370: 903c f13b 34c9 d13c 7e05 1d3e c696 243d
00000380: 27eb ca3a 30e3 cabd b27d 663e 3edd 173d
00000390: f312 3d3d 4e00 44bc e8ae c1bc b6a8 afbd
000003a0: ca6b dc3c 5574 fabc 68b5 92bc 8726 913c
000003b0: a459 fb3b 0b05 433d 8b79 d43c 84ef 18bd
000003c0: 15db db3d 5e96 873d df17 5a3c fcb5 733d
000003d0: fc71 5c3d 1e31 4a3e b2f7 cbbc 8b00 0e3d
000003e0: 325e c23b 4227 f73d 43e1 afbc df3d a43d
000003f0: f79b d53d b6c6 823c ecb8 43bc 503e 13bc

conv3.0.bias f4 [100]
0.03673623 0.05229644 0.04757958 0.048104227 0.042737607 0.037799917 -0.045196872 -0.026948208
-0.0066826986 -0.006554049 -0.01356389 0.0018467631 -0.0056389817 -0.029593864 0.01173823 -0.0055639567
0.023592003 -0.010346539 0.016360387 -0.03732508 0.05705805 0.020174216 0.007570831 0.03369837
-0.037979826 0.034500465 -0.05715906 0.010898097 0.027515115 0.03871316 -0.046000257 0.062221
0.024850719 -0.047186844 -0.042553484 0.03245817 0.045118585 -0.039464444 0.001987356 0.011518433
0.0024195814 -0.048299577 0.008346449 0.01636903 -0.029609371 0.033687863 -0.02100082 -0.05828849
-0.027662674 -0.029626446 -0.054769203 0.03363627 0.015449777 0.0035285463 -0.03684053 -0.007526677
-0.014046208 0.023277054 -0.007987637 0.026101727 0.047459546 -0.04338105 0.0062705143 0.03601461
0.0045303 0.03618954 -0.0018457052 -0.028909607 0.035571266 0.0047276695 0.0042662635 0.008972366
0.016194882 -0.053379748 0.002264849 -0.061400488 0.053955458 -0.054174032 0.00836475 0.053710613
0.050033037 -0.0594883 -0.049514227 -0.0010751069 0.014479106 0.013183236 0.021971656 -0.0011301867
0.073451504 -0.011921914 0.04337883 -0.025536977 -0.04222462 0.008962169 0.011642218 -0.0380394
-0.049145352 -0.042575713 -0.048678838 0.021074794
00000000: bb78 163d cb34 563d cee2 423d f008 453d
00000010: a10d 2f3d 16d4 1a3d 5b20 39bd 7dc2 dcbc
00000020: 8afa dabb 59c3 d6bb 143b 5ebc 160f f23a
00000030: 35c7 b8bb d56e f2bc b451 403c da51 b6bb
00000040: 0444 c13c 8884 29bc 3806 863c 2fe2 18bd
00000050: b4b5 693d 6644 a53c bc14 f83b 4d07 0a3d
00000060: bc90 1bbd 5c50 0d3d 9e1f 6abd ef8d 323c
00000070: 6167 e13c b191 1e3d c46a 3cbd 73db 7e3d
00000080: bc93 cb3c fe46 41bd 904c 2ebd dcf2 043d
00000090: 44ce 383d 78a5 21bd 4d3e 023b cfb7 3c3c
000000a0: d791 1e3b c7d5 45bd 8bbf 083c 5818 863c
000000b0: 5a8f f2bc 49fc 093d e909 acbc e9bf 6ebd
000000c0: d59c e2bc 29b3 f2bc ac55 60bd 2fc6 093d
000000d0: 1021 7d3c 2f3f 673b 18e6 16bd 58a2 f6bb
000000e0: 1122 66bc 85af be3c 94de 02bc 4ad3 d53c
000000f0: f164 423d 54b0 31bd e378 cd3b 0e84 133d
00000100: e972 943b 7c3b 143d 97eb f1ba d7d3 ecbc
00000110: 2db3 113d 91ea 9a3b 03cc 8b3b d500 133c
00000120: 21ab 843c b9a4 5abd dc6d 143b 147f 7bbd
00000130: 6600 5d3d 97e5 5dbd 4e0c 093c a9ff 5b3d
00000140: 71ef 4c3d 01aa 73bd 6ecf 4abd 9aea 8cba
00000150: c639 6d3c 80fe 573c e7fd b33c c622 94ba
00000160: be6d 963d 2254 43bc 00ae 313d ec32 d1bc
00000170: b9f3 2cbd 10d6 123c 00bf 3e3c 34cf 1bbd
00000180: a34c 49bd df63 2ebd 7663 47bd 0ca5 ac3c

conv3.1.weight f4 [100]
0.3635025 0.16894443 0.39825046 0.4695759 0.9598138 0.2245688 0.22055316 0.16609657
0.44886598 0.5412595 0.55196875 0.55840313 0.644683 0.39665374 0.6855887 0.49535057
0.75777954 0.56077486 0.7302713 0.9125845 0.2388889 0.7828299 0.26305556 0.590977
0.4441032 0.3975648 0.25631055 0.5241382 0.26864126 0.24301928 0.4870633 0.47531986
0.4767871 0.39902535 0.31315395 0.58298504 0.5606117 0.33713076 0.4924724 0.29772943
0.24218608 0.36585414 0.65782887 0.36736718 0.8021697 1.0167505 0.6199631 0.3459086
0.51324195 0.5505949 0.19965006 0.27853486 0.8108551 0.83675915 0.2542102 0.7930593
0.45802957 0.1721344 0.41523203 0.48199028 0.40325162 0.67312384 0.93628854 0.54366285
0.44192266 0.11526612 0.64922214 0.6235749 0.26159468 0.47886047 0.46098498 0.7271971
0.3538338 0.49963745 0.74848604 0.5279001 0.48317793 0.67005175 0.4807559 0.28737366
0.6329692 0.416855 0.5125456 0.59144455 0.44990402 0.3031248 0.10499582 0.7377765
0.8627809 0.42153546 0.46483356 0.5820003 0.5103893 0.7296184 0.5610652 0.5067453
0.42117366 0.7776775 0.29824167 0.72376454
00000000: 001d ba3e c5ff 2c3e 7ce7 cb3e 416c f03e
00000010: 5bb6 753f 5df5 653e b0d8 613e 3815 2a3e
00000020: c3d1 e53e fc8f 0a3f d34d 0d3f 82f3 0e3f
00000030: f209 253f 3316 cb3e be82 2f3f 979e fd3e
00000040: d7fd 413f f18e 0f3f 0ff3 3a3f 239f 693f
00000050: 4b9f 743e 8a67 483f 38af 863e 454a 173f
00000060: 7f61 e33e 9d8d cb3e 233b 833e ec2d 063f
00000070: 598b 893e 0cda 783e 5c60 f93e 205d f33e
00000080: 701d f43e 0d4d cc3e b755 a03e 823e 153f
00000090: 4084 0f3f 679c ac3e 5825 fc3e fe6f 983e
000000a0: a1ff 773e 3c51 bb3e 7967 283f 8d17 bc3e
000000b0: fe5a 4d3f e124 823f e7b5 1e3f ef1a b13e
000000c0: d363 033f caf3 0c3f 1171 4c3e 1f9c 8e3e
000000d0: 3394 4f3f d935 563f d727 823e ef05 4b3f
000000e0: da82 ea3e 0044 303e 4b99 d43e 6ec7 f63e
000000f0: ff76 ce3e d851 2c3f 9bb0 6f3f 7d2d 0b3f
00000100: b043 e23e a510 ec3d 6c33 263f 9ba2 1f3f
00000110: bdef 853e 332d f53e 3906 ec3e 9729 3a3f
00000120: b429 b53e 7bd0 ff3e c89c 3f3f 7624 073f
00000130: 1963 f73e 8388 2b3f a325 f63e a422 933e
00000140: 450a 223f 056e d53e 3036 033f e968 173f
00000150: d259 e63e 2c33 9b3e 0c08 d73d ecde 3c3f
00000160: 36df 5c3f 7fd3 d73e aafe ed3e f9fd 143f
00000170: e0a8 023f 45c8 3a3f f8a1 0f3f 0fba 013f
00000180: 13a4 d73e df15 473f 22b3 983e a248 393f

conv3.1.bias f4 [100]
-0.17849544 -0.21615182 -0.272159 -0.29101968 -0.13143833 -0.04610731 -0.27938917 -0.07741267
-0.28535366 -0.24035025 -0.20966707 -0.21488218 -0.12754014 -0.043023944 -0.28311944 -0.07701443
-0.26687145 -0.3485358 -0.28687268 -0.2817521 -0.16566643 -0.029137582 0.067883015 -0.24993438
0.011963963 -0.35355142 -0.13556018 -0.17166932 -0.2316981 -0.09536711 -0.08942296 -0.2564289
-0.1370445 -0.27573466 -0.12827975 -0.058755316 -0.063841216 -0.041952785 -0.17033662 -0.19460253
-0.25911656 -0.12478827 -0.29800633 -0.08684076 -0.19984722 -0.038833484 -0.24455942 -0.1589574
-0.06568464 -0.34764963 -0.2516068 -0.08089549 -0.17026106 -0.19365194 -0.19521287 -0.30595103
-0.2332067 -0.1695898 -0.32920986 -0.34904656 -0.04105435 -0.39745882 -0.30430102 -0.16170222
-0.057798427 -0.1855581 -0.2582586 -0.36427635 -0.18761127 -0.09646302 -0.28377548 -0.24373136
0.035857365 -0.19254974 -0.10653385 -0.18651211 -0.37398288 -0.29011938 -0.19865596 -0.13397159
-0.1712881 -0.30192742 -0.2384476 -0.06083396 -0.28923213 -0.12659268 -0.14549835 -0.35623837
-0.093390055 -0.123844706 -0.20138602 -0.13888773 -0.3092938 -0.15890086 -0.1906263 -0.2682214
-0.028948965 -0.13966328 -0.3101118 -0.3109271
00000000: 82c7 36be e756 5dbe 6d58 8bbe 8800 95be
00000010: c597 06be 05db 3cbd 190c 8fbe 898a 9ebd
00000020: e019 92be 601e 76be f7b2 56be 130a 5cbe
00000030: e299 02be e039 30bd 08f5 90be beb9 9dbd
00000040: 60a3 88be 4973 b2be fae0 92be d041 90be
00000050: 76a4 29be f0b1 eebc 4006 8b3d ccee 7fbe
00000060: 7f04 443c b104 b5be 4ad0 0abe 15ca 2fbe
00000070: 4442 6dbe d54f c3bd 6323 b7bd a64a 83be
00000080: 6555 0cbe 182d 8dbe c45b 03be 6aa9 70bd
00000090: 2fbf 82bd afd6 2bbd b96c 2ebe e345 47be
000000a0: edaa 84be fe90 ffbd 4994 98be 92d9 b1bd
000000b0: c0a4 4cbe dc0f 1fbd c96d 7abe bbc5 22be
000000c0: ab85 86bd 22ff b1be 9bd2 80be 89ac a5bd
000000d0: ea58 2ebe b24c 46be e2e5 47be 9da5 9cbe
000000e0: bdcd 6ebe f3a8 2dbe 328e a8be 3bb6 b2be
000000f0: 9b28 28bd b97f cbbe 58cd 9bbe 4495 25be
00000100: 0bbe 6cbd f102 3ebe 793a 84be 6e82 babe
00000110: 2b1d 40be 678e c5bd 054b 91be b794 79be
00000120: 2cdf 123d c22b 45be 6b2e dabd 08fd 3ebe
00000130: af7a bfbe 878a 94be 786c 4bbe d92f 09be
00000140: 2666 2fbe 3b96 9abe 9c2b 74be 082d 79bd
00000150: 3c16 94be 83a1 01be 85fd 14be e064 b6be
00000160: 4943 bfbd 4ba2 fdbd 2338 4ebe 9638 0ebe
00000170: c25b 9ebe e8b6 22be 8a33 43be 5154 89be
00000180: 6126 edbc e403 0fbe f9c6 9ebe d631 9fbe

conv3.1.running_mean f4 [100]
-0.8061838 0.5105477 -0.6035175 0.36488134 -0.52844673 -0.2638329 0.09674526 -0.9631162
1.7478825 -0.090219244 -0.4581187 -0.31298465 -1.1059091 0.7695149 -0.006171483 0.7058351
-0.579863 0.37029248 -0.15266643 -0.8884805 0.6736519 -0.9665463 -0.6737958 -0.13420947
-0.1571404 0.010492286 -0.40574014 0.08630813 0.9177075 -0.06267477 -0.76637405 0.022070149
0.23521437 0.94954765 0.1758046 -0.5674751 -0.5799625 -1.3006027 0.4794953 -0.1852422
1.406254 0.12406486 0.01830087 -0.31812683 0.17467429 -1.1335598 -0.4572449 0.43033624
-0.8300623 1.3365166 0.6571362 -1.4837887 0.1692088 -0.24796122 -0.5218149 0.048787236
-0.28403914 0.87911624 1.1768415 0.99733585 -0.93967277 0.28371102 1.5770117 -1.3675605
-0.6925441 0.942505 0.74857306 1.0961415 1.0483524 -1.1905886 -0.15075348 -1.1951506
-0.08386584 0.060725465 -0.7823631 0.8469627 1.579452 1.0580742 -1.0938991 0.011607113
0.998978 1.0200281 0.48510286 -0.353819 1.5155184 -0.5488561 1.0815886 0.9464164
0.4213065 0.454231 -0.44714463 0.6626489 1.1211461 -0.21910836 0.034930337 0.041592497
-0.32364914 -0.8754845 1.3496082 -0.41377804
00000000: 1062 4ebf 41b3 023f 1f80 1abf bad1 ba3e
00000010: 4948 07bf 1b15 87be 6122 c63d c98e 76bf
00000020: 9dba df3f dec4 b8bd 898e eabe 863f a0be
00000030: 6e8e 8dbf eefe 443f 273a cabb 9cb1 343f
00000040: e771 14bf fa96 bd3e 9754 1cbe 7573 63bf
00000050: 7374 2c3f 946f 77bf e27d 2cbf 356e 09be
00000060: 6ae9 20be d6e7 2b3c 2cbd cfbe 51c2 b03d
00000070: e1ee 6a3f a15b 80bd 1731 44bf 75cc b43c
00000080: 09dc 703e 8e15 733f 1f06 343e 0c46 11bf
00000090: 6c78 14bf 267a a6bf 6880 f53e 22b0 3dbe
000000a0: 2200 b43f b815 fe3d b5eb 953c 85e1 a2be
000000b0: d1dd 323e 7d18 91bf 011c eabe 0855 dc3e
000000c0: f77e 54bf fa12 ab3f 143a 283f caec bdbf
000000d0: 1245 2d3e 8ce9 7dbe a995 05bf 20d5 473d
000000e0: 946d 91be c30d 613f bea2 963f 6751 7f3f
000000f0: 658e 70bf 9242 913e 85db c93f 390c afbf
00000100: 924a 31bf 0248 713f 7ca2 3f3f 5d4e 8c3f
00000110: 6930 863f 3565 98bf 1f5f 1abe b2fa 98bf
00000120: dbc1 abbd 44bb 783d f348 48bf 8cd2 583f
00000130: 7c2b ca3f fa6e 873f e304 8cbf c32b 3e3c
00000140: 06bd 7f3f 4890 823f 675f f83e c427 b5be
00000150: 82fc c13f d581 0cbf 7f71 8a3f 5848 723f
00000160: 7cb5 d73e f790 e83e 24f0 e4be 5ca3 293f
00000170: b781 8f3f f15d 60be 1d13 0f3d e55c 2a3d
00000180: 57b5 a5be c11f 60bf f6bf ac3f b7da d3be

conv3.1.running_var f4 [100]
0.41752124 0.48825884 0.3593154 0.43855047 0.5212701 0.5251002 0.36127102 0.76124984
0.68905884 0.24251121 0.287754 0.25719327 0.67033964 0.47740325 0.2705858 0.4899902
0.41519627 0.9202845 0.45585713 0.3497204 0.5689766 0.84798 0.99369055 0.44275343
0.45478117 0.39088175 0.42013136 0.36241284 0.42123115 0.39883804 0.4444282 0.35431668
0.4720042 0.5608193 0.40297654 0.31338686 0.5439407 0.6116497 0.31947246 0.60279346
0.95321673 0.75714403 0.3151797 0.4247754 0.38960004 0.5936736 0.2778436 0.5011868
0.39999658 0.7752004 0.43698373 0.73654675 0.32241124 0.71948147 0.55024105 0.4150906
0.23649484 0.31446943 0.5322043 0.5466523 0.5378044 0.641132 0.6881128 0.5469196
0.7083539 0.659918 0.68687177 0.30986044 0.43109715 0.7349485 0.46882835 0.55917925
0.4208373 0.19933379 0.77533376 0.6172642 0.51376265 0.8212837 0.72007495 0.41540614
0.47164464 0.6102446 0.31595868 0.58314186 0.57149726 0.3734107 0.4320073 0.36422575
0.38633627 0.5584479 0.46175358 0.4204003 0.47515762 0.5984472 0.39576212 0.4675557
0.6475329 0.69669956 0.5623897 0.35298413
00000000: 58c5 d53e 10fd f93e 30f8 b73e b089 e03e
00000010: f571 053f f76c 063f 84f8 b83e 45e1 423f
00000020: 2966 303f dc54 783e 7e54 933e d6ae 833e
00000030: 619b 2b3f 336e f43e 398a 8a3e ffdf fa3e
00000040: 9b94 d43e c497 6b3f 1b66 e93e 8d0e b33e
00000050: 73a8 113f 3815 593f 8162 7e3f 94b0 e23e
00000060: 14d9 e83e a721 c83e 751b d73e 2d8e b93e
00000070: 9cab d73e 8034 cc3e 188c e33e ff68 b53e
00000080: 89aa f13e db91 0f3f f152 ce3e 3e74 a03e
00000090: b33f 0b3f 1395 1c3f e591 a33e ac50 1a3f
000000a0: 0306 743f 31d4 413f 3c5f a13e 297c d93e
000000b0: a879 c73e fefa 173f 8441 8e3e c74d 003f
000000c0: 5acc cc3e 8973 463f 55bc df3e 548e 3c3f
000000d0: 1613 a53e f02f 383f 99dc 0c3f c186 d43e
000000e0: b42b 723e 2302 a13e 8a3e 083f 68f1 0b3f
000000f0: 8dad 093f 3a21 243f 2928 303f ec02 0c3f
00000100: ae56 353f 63f0 283f d4d6 2f3f 07a6 9e3e
00000110: c4b8 dc3e 9625 3c3f 450a f03e 5f26 0f3f
00000120: fd77 d73e 281e 4c3e 467c 463f 0705 1e3f
00000130: f385 033f a63f 523f d556 383f 1db0 d43e
00000140: 687b f13e fd38 1c3f 56c5 a13e c948 153f
00000150: a54d 123f b02f bf3e 1030 dd3e cc7b ba3e
00000160: decd c53e 71f6 0e3f f76a ec3e b53e d73e
00000170: dc47 f33e d633 193f 55a1 ca3e 7663 ef3e
00000180: b7c4 253f e75a 323f c5f8 0f3f 56ba b43e
